…
main difference between them resides in the depth                   Computation and Quantum Information:


                                                       11
    _________________________________________________________________                _________________________________________________________________
    Layer (type)                 Output Shape              Param #                   Layer (type)                 Output Shape              Param #
    =================================================================                =================================================================
    input_1 (InputLayer)         (None, 28, 28, 1)         0                         input_1 (InputLayer)         (None, 28, 28, 1)         0
    _________________________________________________________________                _________________________________________________________________
    zero_padding2d (ZeroPadding2 (None, 36, 36, 1)         0                         conv2d (Conv2D)              (None, 28, 28, 16)        160
    _________________________________________________________________                _________________________________________________________________
    conv2d (Conv2D)              (None, 36, 36, 64)        640                       max_pooling2d (MaxPooling2D) (None, 14, 14, 16)        0
    _________________________________________________________________                _________________________________________________________________
    conv2d_1 (Conv2D)            (None, 36, 36, 32)        18464                     conv2d_1 (Conv2D)            (None, 14, 14, 8)         1160
    _________________________________________________________________                _________________________________________________________________
    conv2d_2 (Conv2D)            (None, 36, 36, 16)        4624                      max_pooling2d_1 (MaxPooling2 (None, 7, 7, 8)           0
    _________________________________________________________________                _________________________________________________________________
    max_pooling2d (MaxPooling2D) (None, 18, 18, 16)        0                         conv2d_2 (Conv2D)            (None, 7, 7, 8)           584
    _________________________________________________________________                _________________________________________________________________
    conv2d_3 (Conv2D)            (None, 18, 18, 8)         1160                      max_pooling2d_2 (MaxPooling2 (None, 4, 4, 8)           0
    _________________________________________________________________                _________________________________________________________________
    max_pooling2d_1 (MaxPooling2 (None, 9, 9, 8)           0                         flatten (Flatten)            (None, 128)               0
    _________________________________________________________________                _________________________________________________________________
    conv2d_4 (Conv2D)            (None, 9, 9, 8)           584                       dense (Dense)                (None, 20)                2580
    _________________________________________________________________                _________________________________________________________________
    max_pooling2d_2 (MaxPooling2 (None, 5, 5, 8)           0                         dense_1 (Dense)              (None, 128)               2688
    _________________________________________________________________                _________________________________________________________________
    flatten (Flatten)            (None, 200)               0                         reshape (Reshape)            (None, 4, 4, 8)           0
    _________________________________________________________________                _________________________________________________________________
    dense (Dense)                (None, 20)                4020                      conv2d_3 (Conv2D)            (None, 4, 4, 8)           584
    _________________________________________________________________                _________________________________________________________________
    dense_1 (Dense)              (None, 128)               2688                      up_sampling2d (UpSampling2D) (None, 8, 8, 8)           0
    _________________________________________________________________                _________________________________________________________________
    reshape (Reshape)            (None, 4, 4, 8)           0                         conv2d_4 (Conv2D)            (None, 8, 8, 8)           584
    _________________________________________________________________                _________________________________________________________________
    conv2d_5 (Conv2D)            (None, 4, 4, 8)           584                       up_sampling2d_1 (UpSampling2 (None, 16, 16, 8)         0
    _________________________________________________________________                _________________________________________________________________
    up_sampling2d (UpSampling2D) (None, 8, 8, 8)           0                         conv2d_5 (Conv2D)            (None, 14, 14, 16)        1168
    _________________________________________________________________                _________________________________________________________________
    conv2d_6 (Conv2D)            (None, 8, 8, 8)           584                       up_sampling2d_2 (UpSampling2 (None, 28, 28, 16)        0
    _________________________________________________________________                _________________________________________________________________
    up_sampling2d_1 (UpSampling2 (None, 16, 16, 8)         0                         conv2d_6 (Conv2D)            (None, 28, 28, 1)         145
    _________________________________________________________________                =================================================================
    conv2d_7 (Conv2D)            (None, 16, 16, 16)        1168                      Total params: 9,653
    _________________________________________________________________                Trainable params: 9,653
    conv2d_8 (Conv2D)            (None, 16, 16, 32)        4640                      Non-trainable params: 0
    _________________________________________________________________                _________________________________________________________________
    conv2d_9 (Conv2D)            (None, 14, 14, 64)        18496
    _________________________________________________________________
    up_sampling2d_2 (UpSampling2 (None, 28, 28, 64)        0
    _________________________________________________________________
    conv2d_10 (Conv2D)           (None, 28, 28, 1)         577
    =================================================================
    Total params: 58,229
    Trainable params: 58,229
    Non-trainable params: 0
    _________________________________________________________________




                                   (a) AE1                                                                           (b) AE2


         Figure 7: Details of the architecture of the two autoencoders explored in the present analysis.
…
